…
Label file not found: out/data_bin/train.label.tgt.txt
| out/data_bin train 1168198 examples
Label file not found: out/data_bin/train1.label.src.txt
Label file not found: out/data_bin/train1.label.tgt.txt
| out/data_bin train1 34308 examples
Label file not found: out/data_bin/valid.label.src.txt
Label file not found: out/data_bin/valid.label.tgt.txt
| out/data_bin valid 4936 examples
Label file not found: out/data_bin/valid1.label.src.txt
Label file not found: out/data_bin/valid1.label.tgt.txt
| out/data_bin valid1 4384 examples
TransformerModel(
  (encoder): TransformerEncoder(
    (embed_tokens): Embedding(49999, 512, padding_idx=1)
    (embed_positions): SinusoidalPositionalEmbedding()
    (layers): ModuleList(
      (0): TransformerEncoderLayer(
        (self_attn): MultiheadAttention(
          (out_proj): Linear(in_features=512, out_features=512, bias=True)
        )
        (fc1): Linear(in_features=512, out_features=4096, bias=True)
        (fc2): Linear(in_features=4096, out_features=512, bias=True)
        (layer_norms): ModuleList(
          (0): LayerNorm((512,), eps=1e-05, elementwise_affine=True)
          (1): LayerNorm((512,), eps=1e-05, elementwise_affine=True)
        )
      )
      (1): TransformerEncoderLayer(
        (self_attn): MultiheadAttention(
          (out_proj): Linear(in_features=512, out_features=512, bias=True)
        )
        (fc1): Linear(in_features=512, out_features=4096, bias=True)
        (fc2): Linear(in_features=4096, out_features=512, bias=True)
        (layer_norms): ModuleList(
          (0): LayerNorm((512,), eps=1e-05, elementwise_affine=True)
          (1): LayerNorm((512,), eps=1e-05, elementwise_affine=True)
        )
      )
      (2): TransformerEncoderLayer(
        (self_attn): MultiheadAttention(
          (out_proj): Linear(in_features=512, out_features=512, bias=True)
        )
        (fc1): Linear(in_features=512, out_features=4096, bias=True)
        (fc2): Linear(in_features=4096, out_features=512, bias=True)
        (layer_norms): ModuleList(
          (0): LayerNorm((512,), eps=1e-05, elementwise_affine=True)
          (1): LayerNorm((512,), eps=1e-05, elementwise_affine=True)
        )
      )
      (3): TransformerEncoderLayer(
        (self_attn): MultiheadAttention(
          (out_proj): Linear(in_features=512, out_features=512, bias=True)
        )
        (fc1): Linear(in_features=512, out_features=4096, bias=True)
        (fc2): Linear(in_features=4096, out_features=512, bias=True)
        (layer_norms): ModuleList(
          (0): LayerNorm((512,), eps=1e-05, elementwise_affine=True)
          (1): LayerNorm((512,), eps=1e-05, elementwise_affine=True)
        )
      )
      (4): TransformerEncoderLayer(
        (self_attn): MultiheadAttention(
          (out_proj): Linear(in_features=512, out_features=512, bias=True)
        )
        (fc1): Linear(in_features=512, out_features=4096, bias=True)
        (fc2): Linear(in_features=4096, out_features=512, bias=True)
        (layer_norms): ModuleList(
          (0): LayerNorm((512,), eps=1e-05, elementwise_affine=True)
          (1): LayerNorm((512,), eps=1e-05, elementwise_affine=True)
        )
      )
      (5): TransformerEncoderLayer(
        (self_attn): MultiheadAttention(
          (out_proj): Linear(in_features=512, out_features=512, bias=True)
        )
        (fc1): Linear(in_features=512, out_features=4096, bias=True)
        (fc2): Linear(in_features=4096, out_features=512, bias=True)
        (layer_norms): ModuleList(
          (0): LayerNorm((512,), eps=1e-05, elementwise_affine=True)
          (1): LayerNorm((512,), eps=1e-05, elementwise_affine=True)
        )
      )
    )
  )
  (decoder): TransformerDecoder(
    (embed_tokens): Embedding(49999, 512, padding_idx=1)
    (embed_positions): SinusoidalPositionalEmbedding()
    (layers): ModuleList(
      (0): TransformerDecoderLayer(
        (self_attn): MultiheadAttention(
          (out_proj): Linear(in_features=512, out_features=512, bias=True)
        )
        (self_attn_layer_norm): LayerNorm((512,), eps=1e-05, elementwise_affine=True)
        (encoder_attn): MultiheadAttention(
          (out_proj): Linear(in_features=512, out_features=512, bias=True)
        )
        (encoder_attn_layer_norm): LayerNorm((512,), eps=1e-05, elementwise_affine=True)
        (fc1): Linear(in_features=512, out_features=4096, bias=True)
        (fc2): Linear(in_features=4096, out_features=512, bias=True)
        (final_layer_norm): LayerNorm((512,), eps=1e-05, elementwise_affine=True)
      )
      (1): TransformerDecoderLayer(
        (self_attn): MultiheadAttention(
          (out_proj): Linear(in_features=512, out_features=512, bias=True)
        )
        (self_attn_layer_norm): LayerNorm((512,), eps=1e-05, elementwise_affine=True)
        (encoder_attn): MultiheadAttention(
          (out_proj): Linear(in_features=512, out_features=512, bias=True)
        )
        (encoder_attn_layer_norm): LayerNorm((512,), eps=1e-05, elementwise_affine=True)
        (fc1): Linear(in_features=512, out_features=4096, bias=True)
        (fc2): Linear(in_features=4096, out_features=512, bias=True)
        (final_layer_norm): LayerNorm((512,), eps=1e-05, elementwise_affine=True)
      )
      (2): TransformerDecoderLayer(
        (self_attn): MultiheadAttention(
          (out_proj): Linear(in_features=512, out_features=512, bias=True)
        )
        (self_attn_layer_norm): LayerNorm((512,), eps=1e-05, elementwise_affine=True)
        (encoder_attn): MultiheadAttention(
          (out_proj): Linear(in_features=512, out_features=512, bias=True)
        )
        (encoder_attn_layer_norm): LayerNorm((512,), eps=1e-05, elementwise_affine=True)
        (fc1): Linear(in_features=512, out_features=4096, bias=True)
        (fc2): Linear(in_features=4096, out_features=512, bias=True)
        (final_layer_norm): LayerNorm((512,), eps=1e-05, elementwise_affine=True)
      )
      (3): TransformerDecoderLayer(
        (self_attn): MultiheadAttention(
          (out_proj): Linear(in_features=512, out_features=512, bias=True)
        )
        (self_attn_layer_norm): LayerNorm((512,), eps=1e-05, elementwise_affine=True)
        (encoder_attn): MultiheadAttention(
          (out_proj): Linear(in_features=512, out_features=512, bias=True)
        )
        (encoder_attn_layer_norm): LayerNorm((512,), eps=1e-05, elementwise_affine=True)
        (fc1): Linear(in_features=512, out_features=4096, bias=True)
        (fc2): Linear(in_features=4096, out_features=512, bias=True)
        (final_layer_norm): LayerNorm((512,), eps=1e-05, elementwise_affine=True)
      )
      (4): TransformerDecoderLayer(
        (self_attn): MultiheadAttention(
          (out_proj): Linear(in_features=512, out_features=512, bias=True)
        )
        (self_attn_layer_norm): LayerNorm((512,), eps=1e-05, elementwise_affine=True)
        (encoder_attn): MultiheadAttention(
          (out_proj): Linear(in_features=512, out_features=512, bias=True)
        )
        (encoder_attn_layer_norm): LayerNorm((512,), eps=1e-05, elementwise_affine=True)
        (fc1): Linear(in_features=512, out_features=4096, bias=True)
        (fc2): Linear(in_features=4096, out_features=512, bias=True)
        (final_layer_norm): LayerNorm((512,), eps=1e-05, elementwise_affine=True)
      )
      (5): TransformerDecoderLayer(
        (self_attn): MultiheadAttention(
          (out_proj): Linear(in_features=512, out_features=512, bias=True)
        )
        (self_attn_layer_norm): LayerNorm((512,), eps=1e-05, elementwise_affine=True)
        (encoder_attn): MultiheadAttention(
          (out_proj): Linear(in_features=512, out_features=512, bias=True)
        )
        (encoder_attn_layer_norm): LayerNorm((512,), eps=1e-05, elementwise_affine=True)
        (fc1): Linear(in_features=512, out_features=4096, bias=True)
        (fc2): Linear(in_features=4096, out_features=512, bias=True)
        (final_layer_norm): LayerNorm((512,), eps=1e-05, elementwise_affine=True)
      )
    )
    (copy_attn_layer): MultiheadAttention(
      (out_proj): Linear(in_features=512, out_features=512, bias=True)
    )
    (copy_alpha_linear): Linear(in_features=512, out_features=1, bias=True)
  )
)
| model transformer, criterion CrossEntropyCriterion
| num. model params: 95979521 (num. trained: 95979521)
Load params from ./out/models_pretrain/checkpoint9.pt...
Load encoder.embed_tokens.weight...
Load encoder.layers.0.self_attn.in_proj_weight...
Load encoder.layers.0.self_attn.in_proj_bias...
Load encoder.layers.0.self_attn.out_proj.weight...
Load encoder.layers.0.self_attn.out_proj.bias...
…
